.dart_tool/chrome-device/Default/optimization_guide_prediction_model_downloads/0ed0ad6d-c725-47bc-92c5-52291ccd7471/model.tflite (tflite, 67216 bytes, 5 tensors)

dnn/hiddenlayer_1/bias/part_0 f4 [64]
00000000: ee30 3c3c 8a63 1bbd 153d 49bd 47e4 2e3c
00000010: b6b2 023e fce8 e23d d541 993b 9c9e 9bbc
00000020: 7562 133d 43ba 9bbc c4dd 523d 32eb f23d
00000030: ae82 06bd a263 02bd d8bd 96bd 2f63 4cbc
00000040: 5943 babc 5644 cabc d2bf f43c 7bb8 9e3d
00000050: c148 cc3d 5878 6fba 5566 d6bc 8b79 6cbc
00000060: 409d 08bd c7b2 d33c a466 aa3d 8cc5 40bd
00000070: ae0f 4fbd a84b a0bd 2ead 82bd 564d ae3d
00000080: f3cf 9d3c 1278 b43d 5e43 8dbc 4d5c af3d
00000090: 81fe 0ebc 8038 8a3d b156 1d3c b255 95bb
000000a0: 7309 53bd 4d3d cf3c 64db 90bb 55e3 55bd
000000b0: f695 143b ab2a 1d3d c3f6 9abc d133 91bb
000000c0: 0031 33bd d180 53bd 7212 c9bd ee2a 72bb
000000d0: 38b3 b0bc bd86 083d 6ec3 843d 32b1 5ebd
000000e0: 65e7 ac3d 5523 d83c 5a5f 293d be07 083d
000000f0: 2723 f83a cc8e 0a3d aeb8 88bd 55f3 4ebd
0.011486275 -0.037936725 -0.049130518 0.010674543 0.12763485 0.110795945 0.0046770372 -0.01899653
0.035982568 -0.019009715 0.051481023 0.11861266 -0.03283947 -0.0318333 -0.073604286 -0.012474819
-0.022737192 -0.024690788 0.029876623 0.077500306 0.09974814 -0.0009135059 -0.026171843 -0.014433275
-0.03335309 0.025842084 0.083203584 -0.047063395 -0.050552063 -0.0782693 -0.06380688 0.085108444
0.019264197 0.08811964 -0.017244037 0.08562527 -0.008727671 0.06749058 0.009603188 -0.004557335
-0.051522683 0.025297785 -0.0044206847 -0.052218754 0.0022672391 0.03837077 -0.018916493 -0.004431226
-0.043747902 -0.05163652 -0.09817971 -0.0036951858 -0.021569833 0.03333162 0.06482588 -0.054368205
0.084425725 0.026384035 0.0413507 0.03321051 0.0018931375 0.033827588 -0.0667585 -0.05052503

dnn/hiddenlayer_0/bias/part_0 f4 [128]
00000000: a2d9 35bc 67a9 8a3d b8b0 2b3d ce7f 53be
00000010: b9b7 72bc d4cc b93d fd8f 463d 4917 d4bc
00000020: 24c3 80bc 781e 09bb 8cd9 c83d 827d 60bd
00000030: cb26 0c3d ac54 f8bc fb6a 9e3c 869e 7b3d
00000040: 641b 05bb c5ca 29bd 037c 273d b037 a0bd
00000050: e957 74bc 5dbc 8f3c a439 adbd 0426 ed3c
00000060: 1b88 5abc e0ac ac3d 68e1 533d 00c6 5ebb
00000070: 09ce fa3c 7932 bf3c 801b f13d b1b4 35bd
00000080: 9494 1abd 5a0a f33c b3be 00bd d2b8 75bd
00000090: 72f6 a9bc 6ef3 c43d bba6 0fbd 3665 1f3d
000000a0: 0043 4cbd ad21 2d3c dab6 f73b 0cc0 d73c
000000b0: 62ef 8bbc bcd8 85bd ce3e b03d 9c05 4fbd
000000c0: 22c9 a03b e1fb 2f3b 549e 203d 804f e4bc
000000d0: fb2d 17bc fc25 87bd b8af a3bc f10b 923d
000000e0: 8773 fa3c be7e bebd 0bc8 87bd 8381 d23c
000000f0: 5243 4bbd b268 c3bc e4f1 2f3d 93e9 e23c
00000100: d6be c73c 1869 c63d f3f0 773d 98c1 15bc
00000110: e4d7 113d bedd b0bc c58b 6e3d d2e7 853d
00000120: c9ea 553b 5e59 7b3c 5be8 6c3d 0eed 0fbd
00000130: e591 8f3d 8f62 873c 2dc5 33bd 833c 9b3d
00000140: 5547 113a bda7 933b 10c5 8a3c c0d4 a6bb
00000150: 24e1 01bd 452e ffbd 5ba4 993d 0451 b93c
00000160: 1b37 a3bd 5ae9 e93c 91c0 f9bd 2a7f 57bd
00000170: 8d68 8dbc e8ea 0abd 501f bdbc 42c7 a43d
00000180: 4936 243d c145 94bc 255c 1ebd 54e1 dbbc
00000190: 331f 2cbd b984 213d 9d4c bcbb 702e 143c
000001a0: 9558 823d aced a43b f313 05bd eb89 28bd
000001b0: 58c4 053d ce7c 7b3c 1b62 bc3d 3d5b 57bc
000001c0: d04b 21bd 3ba7 883c 497c c7bd e1d2 8e3c
000001d0: 2382 a83c 8f97 573d 387b 17bd 74a8 69bd
000001e0: 267c 7fbc 6fa7 6dbc 5353 fd3c 9b00 adbd
000001f0: a3c5 49bb 43e0 3ebc f05b b23d 86c7 37be
-0.011099251 0.06770592 0.04191658 -0.20654222 -0.014814311 0.09072271 0.04847716 -0.02589001
-0.01571805 -0.0020922702 0.09807119 -0.054807194 0.034216683 -0.030313812 0.019338122 0.061430477
-0.0020310516 -0.04145314 0.04088975 -0.078231215 -0.014913538 0.017545873 -0.0845826 0.028948791
-0.013338114 0.08431411 0.051728636 -0.003399253 0.030615823 0.023339497 0.11772823 -0.044361774
-0.03773935 0.029668022 -0.031431865 -0.05999071 -0.020747397 0.09616743 -0.035071116 0.03891488
-0.049868584 0.010567111 0.0075596394 0.026336692 -0.01708192 -0.065354794 0.08605729 -0.05054246
0.0049067894 0.0026853012 0.039213493 -0.02786994 -0.009227271 -0.06599042 -0.01998125 0.07131184
0.030572666 -0.09301518 -0.06629952 0.025696522 -0.04962475 -0.023853634 0.042955294 0.027699267
0.02438299 0.09688014 0.06053252 -0.009140395 0.03560628 -0.02159011 0.058238763 0.06538357
0.0032641164 0.015341131 0.05783878 -0.035138182 0.07010249 0.016526489 -0.043889213 0.07579901
0.00055419403 0.00450608 0.01693967 -0.0050912797 -0.03170885 -0.12459997 0.075020514 0.02262164
-0.07969495 0.028553654 -0.12194932 -0.052611507 -0.017261768 -0.03391543 -0.02308622 0.08045818
0.040090833 -0.018099668 -0.038662095 -0.026840843 -0.04202194 0.039433215 -0.0057464377 0.009044275
0.06364552 0.0050332155 -0.03248973 -0.041147154 0.03265795 0.01534958 0.091984 -0.0131443115
-0.03937894 0.016681304 -0.097405024 0.01743454 0.020569867 0.052634772 -0.036982745 -0.057045415
-0.015593564 -0.014505251 0.030923521 -0.08447381 -0.0030787967 -0.011650148 0.08708942 -0.17947206

dnn/hiddenlayer_0/MatMul f4 [128, 12]
00000000: e313 a5bd 0952 d13d f4ad 053e 165b c6bd
00000010: 83c0 333e 04ec fbbd c2fa 203e 2b0a c5bd
00000020: fa78 d3bc 3052 283e e37f 5fbe e630 333e
00000030: 09ae 4fbe 1b9e f1bd 1972 3dbd a5ab 5ebd
00000040: 5c32 fe3d 0d6f 00be 8c2d 543e 9079 c23d
00000050: d11b ba3d 3219 683e 38b8 2f3e 9885 713e
00000060: b50d a43c f153 a1bd 2938 f9bc 34d8 25be
00000070: 8a82 10be 3ec9 c4bc 8260 6d3d b081 abbd
00000080: 5b5b 2bbc f66f c0bd edf3 723e 1b4b f8bd
00000090: 62cc a93d fcc8 673e edbb c9be 3673 5a3c
000000a0: 9bfa 913d f5d7 46be 4440 23be 4923 7dbb
000000b0: 8078 6abd 9c59 e13d 3c61 e73d 9f29 ab3d
000000c0: aff9 423e 6e04 153e 0778 01be b0d0 3a3d
000000d0: 5544 37be 1e9e 01be aea5 f13d 18f9 74bd
000000e0: d6e9 2a3e 449a d0bb fec9 23bb ce20 95bd
000000f0: 09eb 353e 5562 1abe a3bc 13bd 99c4 0abe
00000100: 33eb 453e bf50 0e3d 88e1 e53d e067 873c
00000110: 2f41 cdbd 18f9 3a3d 1dbb d23d 79d2 ecbd
00000120: c57d 623d d1fe 18be 8131 dbbd 7a45 78bd
00000130: 96f0 af3c e257 c33d 9a82 f5ba 18e0 12bd
00000140: 18a5 d73c d804 74bd 89da 3e3e bdc1 5d3e
00000150: 90ab 8f3d 7d7d 31be 26b1 203c 91ca 07bd
00000160: ac80 2d3e a94b 02bd 63fd 833c 2334 3e3e
00000170: 8959 15be 2f00 083e fd8b 8cbc 235c 8dbc
00000180: 417a dd3d a7f2 3a3e 18ec b2bd bff1 1bbe
00000190: 45ea 3cbe 841e a3bd be1e 683e 3604 6cbd
000001a0: 49f8 7c3d 46b1 f53b 129c 42bd 58e6 743e
000001b0: 2530 3e3d 5927 6d3d ee53 debd b795 763e
000001c0: e50a 27bd 357f 933d 28f6 0f3d be63 dbbd
000001d0: 6dfc 1d3e 80e2 453d 323f f03d 0edb 643e
000001e0: ac60 323d 8c37 103d d5eb 603c 08cf 37be
000001f0: 7a7a de3d 6435 383e edf2 ff3d c83b 3bbc
00000200: d1de c53d 6a63 61be 130a f5bd d98c 8cbc
00000210: 0c66 0d3e 1a22 29be 76be 79be b5ea f5bd
00000220: 9eda 15be 9336 2b3e bb0f 79be da34 e03d
00000230: 2e1b f63d 5083 bd3d 14ca 11be 0e14 483d
00000240: 64ac a1bd a574 dfbc a0cb 8abd 5074 093d
00000250: a733 1ebe 16a8 423d a109 993d af56 cd3d
00000260: e745 823d 3280 12bd 2624 9cbb 0865 35be
00000270: 46f2 52be da00 bfbd fff3 6ebe 54fd 0f3e
00000280: 8b39 ebbd fb6a 48be 3259 d63d 28f6 bbbd
00000290: 309e e83d df0f a1bd b780 cabc 90cb 133d
000002a0: 3a6e 00be 2483 b33d d90c e43c ce08 2dbe
000002b0: 110c 043e 6c0d 813b 8abd dcbc 495e fa3d
000002c0: 0b9d 1a3e c812 fbbc a7a7 c8bd 2526 27be
000002d0: 531c 69be cd3d e13b 8896 97bd 969d 38be
000002e0: 08be 64be 2e66 c73d 0f50 50be 044e 01be
000002f0: 64fc 11bd 0caa 973d 438e 663c 7a49 97bd
00000300: e581 cf3d ae57 1bbe 7904 af3d 797c 03be
00000310: 217f 373e 4de9 dd3d 9b53 5ebe e092 d63d
00000320: 3ef5 0d3e 89e3 643c 28e8 2b3d b377 a9bc
00000330: 7bf8 4abe 064e 913d 486f 9ebd 06f9 4dbd
00000340: fac1 053e cd7b 00bd 89db adbd c3c4 0e3b
00000350: dcfd 2ebe a880 c1bd d4fd a4bb a15f a73d
00000360: c78d 333e 45d8 af3d f7d4 293e d3dc 263e
00000370: aaa9 bb3d 8d73 033e 144d e9bd feab b3bc
00000380: 1eeb 5a3c ee91 7bbd 9d33 703e 350a e93d
00000390: ed03 09be 8944 bc3c 74ca f83c fd80 513e
000003a0: f9aa dc3d d221 593e e67d 87be 7c19 81bc
000003b0: f72f 533e cc7d c03d 6f0f 51bc 95e3 34bd
000003c0: fec9 d13d 89c5 cb3d 8491 6c3d b182 2d3e
000003d0: dc1b 1c3d b1bb be3d 452c 263e 392c fbbd
000003e0: 6eb8 fbbd 5f06 663e 3988 64be da2a 95bd
000003f0: a0ee 0a3e 3b63 83bd 6f55 1abe ab59 a83c
-0.08060434 0.10220725 0.13054639 -0.09685342 0.17553906 -0.12300876 0.15720657 -0.0962108
-0.025814522 0.16437602 -0.21826129 0.17499122 -0.20281233 -0.11797734 -0.04625139 -0.05436291
0.12411949 -0.12542363 0.207205 0.094958425 0.09087337 0.22665861 0.17160118 0.23586118
0.020026067 -0.07877339 -0.030422287 -0.16195756 -0.14112297 -0.024021741 0.057953365 -0.08374345
-0.010458793 -0.09396355 0.23725863 -0.121237 0.08290936 0.22635263 -0.39401188 0.0133331325
0.07127877 -0.19418319 -0.15942484 -0.0038625768 -0.057243824 0.1100342 0.11297843 0.08357548
0.19040559 0.14552471 -0.12643443 0.045609176 -0.1789716 -0.12657973 0.11799179 -0.059807867
0.16690764 -0.006366046 -0.0024992223 -0.072816476 0.1776544 -0.15076573 -0.03606857 -0.13551559
0.19328003 0.034744974 0.11224657 0.016529024 -0.100221984 0.04564771 0.10289595 -0.11563582
0.055295724 -0.14940955 -0.107028015 -0.060613133 0.021477025 0.09538247 -0.0018730939 -0.035858244
0.02632384 -0.05957493 0.18638052 0.21655937 0.07015145 -0.17333026 0.0098078605 -0.033152167
0.16943616 -0.031810436 0.016112035 0.18574576 -0.14584936 0.1328132 -0.017156595 -0.017255848
0.10814334 0.18256627 -0.087364376 -0.15228938 -0.18448742 -0.07964805 0.22667977 -0.057621203
0.06176022 0.0074979393 -0.04751212 0.23915994 0.046432633 0.057898853 -0.10855852 0.24080549
-0.040781874 0.07201997 0.035146862 -0.10712384 0.15428324 0.04831171 0.117308035 0.22349188
0.043549225 0.035209224 0.013728102 -0.1795007 0.10863204 0.17989117 0.12497506 -0.011427827
0.096616395 -0.2201058 -0.11964812 -0.017157005 0.13808459 -0.16516915 -0.24389061 -0.120076574
-0.14634177 0.16720037 -0.24322407 0.10947581 0.12016903 0.092535615 -0.14237243 0.04884725
-0.07894209 -0.0272773 -0.0677712 0.03355819 -0.15449391 0.04752358 0.0747254 0.10026299
0.06360989 -0.035766788 -0.0047650514 -0.17714322 -0.20600232 -0.09326334 -0.23335265 0.14061481
-0.11485585 -0.1957206 0.104662314 -0.0917781 0.11358297 -0.07864355 -0.02471958 0.036082804
-0.12542048 0.087652475 0.027838157 -0.1689789 0.12895228 0.0039383676 -0.026945848 0.12225015
0.1509897 -0.030648604 -0.09797602 -0.16323145 -0.22764711 0.0068738223 -0.074017584 -0.18028864
-0.22338116 0.09736286 -0.2034304 -0.12627417 -0.03564109 0.07405481 0.014072004 -0.073870614
0.10132197 -0.15170166 0.08545775 -0.12840451 0.1791959 0.10835514 -0.2171158 0.10477233
0.13863084 0.013970264 0.04196945 -0.02068696 -0.1982135 0.0709496 -0.07736069 -0.050286315
0.13062277 -0.031368066 -0.08489139 0.002178476 -0.17089027 -0.09448367 -0.0050351415 0.08172537
0.17534553 0.08586172 0.16585146 0.16295175 0.0916322 0.12837048 -0.113916546 -0.021932598
0.01336172 -0.061418466 0.23457189 0.113789 -0.13380404 0.022981899 0.030369975 0.20459361
0.10774798 0.21204308 -0.2646324 -0.015759222 0.20623766 0.09398994 -0.012760027 -0.04416235
0.10243605 0.09949786 0.057755962 0.16944386 0.038112506 0.09313143 0.16227825 -0.12264294
-0.122910365 0.22463368 -0.2231759 -0.07283564 0.1356759 -0.06415411 -0.15071653 0.02055057

dnn/hiddenlayer_1/MatMul f4 [64, 128]
00000000: c1d2 03be e11f 1b3e c2bb 183e 68ca 163d
00000010: 3a89 133e 521f 0d3c 2a6d 95bd 88bc 4bbd
00000020: 0438 323e 56c6 ad3c e362 ecbd 66f2 e7bd
00000030: f054 3a3c 6f45 04be 1c1b c3bd 021e 5038
00000040: bdce 263d 6959 f938 dd19 133e 77fe e2bd
00000050: 5ba0 86bd 4886 0ebe e5cb 6a39 3d0b 953d
00000060: 3225 01be 375c 5e3d 9934 243e 885a 11bd
00000070: 077a e33d 0ad8 b5b8 ab32 93bd 5dc1 76bd
00000080: 4005 273e 248f a23d 6f32 be3c cd54 113c
00000090: 8350 1a3d a4ec 67bd ab7a f13c 45ae 17bd
000000a0: f777 30be 0701 ba3d a704 0ebe 7eff 2a3d
000000b0: c629 00be 4ef6 333e 5a08 923c be10 59bd
000000c0: d5d2 713d 32f1 0e3e 8930 04be 0391 553d
000000d0: 809b 81bd 6394 40bd 4fd7 263e d119 673c
000000e0: 03ac dbbc 222f c53d eb9b 3abd ec18 9f3c
000000f0: 1236 2bbe dc8e 8c3d 3c28 1a3e 1a3d adbd
00000100: 3c5c 29bd 7517 863c cfec 113e c7cb 30bd
00000110: 1129 82bd 121b 15be c2cd b6bd 9cb4 f93d
00000120: da3a 2ebe f044 31be e2da 313e c047 44bd
00000130: 73cc 0e3e 65b7 22be 894f 083e 177d 2b3e
00000140: 2b57 1b3e fb52 313c 51a9 163e 7c6d b1bd
00000150: 30b1 923d 62f7 b83c bf3b 02be 9697 113e
00000160: 10cc f2bd ad45 d63d 2411 163e 0756 dc3d
00000170: bfb1 323e 0542 2abe 04e9 1cbe dd52 18be
00000180: 6484 cb3c 925f 7bbd 7040 08bd 9232 a8bb
00000190: 6732 36be ef09 873d d93a d5bc 1584 0a3e
000001a0: 9efb 243e 22f0 1fbe 4e1a 02be 8ae6 013e
000001b0: 3eb5 4a3d b829 1dbe e73e 0ebe d7e6 b53d
000001c0: 927f c4bd d4e1 1d3e 9dda 223e f041 69bd
000001d0: 7e8e da3c bfe6 95bd 13de 13bc e794 113e
000001e0: a090 f43d 2d49 c23d c35d c4bc 341c 173e
000001f0: 7dc3 bb3b 0753 e03d 396b 8cbd 2325 4b3d
00000200: 3435 f6bc 5cad 213e 9405 793d 394b 81be
00000210: 356a b33c f6af 353e a1f2 153d add0 1cbe
00000220: 9dbb 3a3c f743 bcbc 9b3b 20be 0b07 24bd
00000230: e723 9a3c 31dd bfbd 1223 633d ccc2 4cbd
00000240: 61af 17bc 3aa6 22be 7655 393e c2d1 a2bd
00000250: 8499 ee3d 3a4b 213e 5f0d 9a3d bc8e 10bd
00000260: 08c6 8a3d 0a4a 08be 5b2d 343d ec97 803c
00000270: 81b8 0bbe 20a9 0b3e 6076 313d b11e 22bd
00000280: d198 1cbe bff0 be3d 0eed 7dbc e039 023e
00000290: 073d b73c bcbe 043e 7105 203d a571 13be
000002a0: 38d6 793d 0882 383e 2376 dcbc 80d4 8abd
000002b0: 85cd 13bd 7035 b33d 5c96 16bc 4bb8 053d
000002c0: 45e5 913d 81c0 cc3d 0a27 e9bd 1d16 333e
000002d0: 1ee2 9d3c d45e d3bd 6ba5 c8bd aa02 5f3e
000002e0: 4927 31be 3c9a 343e b983 2dbc cc43 f8bb
000002f0: ef24 c0bd 114c 133e 9480 3b3d 4ff5 0abd
00000300: a50c 0c3e 5312 0b3e 30c6 05be bfe7 193e
00000310: 7170 483d e255 403e d29a 633d a0fb eb3c
00000320: 8d6f 0bbd f671 033e 7883 7a3c ccdd 963c
00000330: aa00 b83d 0d24 613d 88a6 06be 5a31 1d3d
00000340: 8927 9f3c 685c 0ebe cec2 e2bc ab19 653d
00000350: 43e0 8f3c 3e79 2f3d 8f55 043e e297 adbd
00000360: 393b 3dbd 8ace 103e aebc 6a3d 0844 2ebe
00000370: f3cf acbd 1411 3d3c 321c 08be 4ff4 433d
00000380: b24a b2bd 347e 81bd e41d 323e be32 03be
00000390: a5b4 c93d e094 54be 0b3e b03d a5bd 093d
000003a0: 8fc3 6a3d 6bf5 683d 33ae 033e d6b6 e6bd
000003b0: ae93 d0bd f371 70bd 0163 133b 6bf3 123e
000003c0: 9e43 32be 2869 f5bd 1137 d63d 7562 aa3d
000003d0: 3b43 bbbd d35e 1e3e f9c6 ca3d e5f6 ca3c
000003e0: 8fbd 353e 024c 233e 0cb4 373e 4510 2cbd
000003f0: 2889 dd3d 07e7 efbd 699e e63c 3b80 12bd
-0.12873365 0.1514888 0.14915374 0.036814123 0.14407817 0.008613424 -0.07296212 -0.049740344
0.17404181 0.021212738 -0.11542299 -0.11325531 0.01137279 -0.12917112 -0.09526655 4.961901e-05
0.040724505 0.00011889899 0.14365335 -0.110836916 -0.06573554 -0.13918412 0.00022391936 0.07277534
-0.12611845 0.05428716 0.1603569 -0.035486728 0.11107259 -8.670993e-05 -0.071873985 -0.060243
0.16310596 0.07937458 0.023217408 0.008870316 0.03767444 -0.056622162 0.029477438 -0.03703143
-0.17233263 0.09082227 -0.13868962 0.041747563 -0.12515935 0.17574427 0.017826248 -0.052994482
0.059038956 0.13959196 -0.1290914 0.052140247 -0.063284874 -0.047016513 0.16293071 0.014105276
-0.02681542 0.096281305 -0.04555885 0.019421063 -0.16719845 0.06863186 0.1505441 -0.0845892
-0.041347727 0.016368607 0.14250492 -0.043163087 -0.06355489 -0.14561108 -0.08925964 0.12192652
-0.17014638 -0.17311454 0.17368653 -0.04791999 0.13945179 -0.15890272 0.1331159 0.16746937
0.1516997 0.010823007 0.14713027 -0.086634606 0.07162702 0.022578899 -0.12718104 0.14217982
-0.11855328 0.10462508 0.14654976 0.10758596 0.17450617 -0.16626747 -0.15323263 -0.1487536
0.024843402 -0.06137044 -0.033264577 -0.0051329816 -0.17792664 0.065936916 -0.026029037 0.13526948
0.1611161 -0.15618947 -0.12705347 0.126856 0.049489252 -0.15347946 -0.13891183 0.0888192
-0.095946446 0.15418178 0.15903707 -0.05694765 0.026679274 -0.07319402 -0.009025115 0.14216958
0.119416475 0.094866134 -0.02397049 0.14756852 0.005730091 0.10953336 -0.068563886 0.049595963
-0.030054666 0.15788788 0.060796335 -0.25252703 0.02190123 0.17742905 0.036608342 -0.15313978
0.01139727 -0.022981627 -0.15647738 -0.04004578 0.018815948 -0.09368361 0.055453368 -0.04999046
-0.009258122 -0.15883723 0.18099007 -0.079501644 0.116503745 0.15751353 0.075220816 -0.035292372
0.06776053 -0.13309494 0.043988567 0.015697442 -0.13644601 0.13638735 0.04332578 -0.03958005
-0.1529267 0.093232624 -0.015498413 0.1271739 0.022367967 0.12963384 0.03906769 -0.1439882
0.06099531 0.18018353 -0.0269118 -0.067788124 -0.03608467 0.08750427 -0.009191122 0.03264646
0.07123808 0.09997655 -0.11384399 0.17488904 0.01927286 -0.103208214 -0.09797176 0.2177836
-0.17300142 0.1763696 -0.010590487 -0.0075764414 -0.093820445 0.14384486 0.04577692 -0.03392535
0.13676699 0.13581209 -0.13063884 0.1502981 0.048935357 0.18782762 0.05556757 0.028806508
-0.03404193 0.12836441 0.015290134 0.018416308 0.08984502 0.05496602 -0.13149464 0.038377143
0.019428032 -0.13902438 -0.02768078 0.055932682 0.017562991 0.042840235 0.12923263 -0.08476235
-0.046199057 0.14141288 0.057308845 -0.1701814 -0.08438101 0.011539716 -0.13292006 0.047840413
-0.08705653 -0.063228995 0.17394215 -0.12812325 0.09848908 -0.20759916 0.08605584 0.033628125
0.057315405 0.056874674 0.1285942 -0.11265342 -0.10184418 -0.05870242 0.002248943 0.14350669
-0.17408606 -0.119829476 0.10459722 0.083195604 -0.091436826 0.1546586 0.09901232 0.024775932
0.17748092 0.15946963 0.17939776 -0.042007703 0.10817176 -0.11713987 0.028151708 -0.03576682

dnn/logits/MatMul f4 [1, 64]
00000000: 9595 fb3c 034a 8dbe 1c67 4abe fba4 11be
00000010: f50e d43e 72f0 a53e 4c3e e93d 5bfe 90bd
00000020: 2d89 923e 74e8 cabc b8f4 8b3e ff35 d13e
00000030: a334 53bd 7244 afbd 9403 193f 6929 093e
00000040: 99f0 55be 5f33 b1be 00be 033e a338 563e
00000050: 11ea a23e 93ff 033d 83e5 473e 552b 96bd
00000060: c349 3abe f09b eb3d 30cf b23e e85b ddbd
00000070: a17c e4bd 8262 84be 2a57 8dbe 3fc6 8d3e
00000080: b935 253e f152 a33e 5790 26bc 35d1 9d3e
00000090: c75a dbbc ff76 b63e d51d 543e e896 29be
000000a0: 223c 63bd 52af 8e3e ec83 66be edb3 d1bd
000000b0: 314c 83be 38b7 be3e 6d82 b0be 8e14 a73c
000000c0: 98c7 8ebe 370f 42be c286 a2be 4d5d f53d
000000d0: 8c4b 7a3c a48e e53d e03a 803e bd29 74be
000000e0: 1670 863e fe74 6c3e a53f a53e 6ebf 3c3e
000000f0: dcfa 863d 9672 dc3d a977 12be 607f 2abe
0.030710975 -0.2759553 -0.19765896 -0.14223091 0.4141766 0.32410008 0.11388835 -0.070797645
0.28620282 -0.024769045 0.27335143 0.40861508 -0.05156387 -0.08557977 0.59771085 0.13394703
-0.20892562 -0.34609506 0.12865448 0.20920043 0.31819203 0.032226156 0.19521146 -0.07332484
-0.181922 0.11504352 0.34923697 -0.10808545 -0.111565836 -0.25856405 -0.27605563 0.27690312
0.16133775 0.31899217 -0.010166249 0.30823675 -0.026776684 0.35637662 0.20714505 -0.16561472
-0.05547727 0.27868134 -0.22511262 -0.10239396 -0.25644067 0.3724916 -0.34474507 0.020395543
-0.27886653 -0.18951117 -0.31743437 0.11980686 0.015276801 0.11208847 0.25044918 -0.23844047
0.2625739 0.23091504 0.3227512 0.184324 0.065908164 0.10764043 -0.14303459 -0.16650152
