.dart_tool/chrome-device/Default/optimization_guide_prediction_model_downloads/fc7b2145-9967-4211-a929-ad769f3f3865/model.tflite (tflite, 67216 bytes, 5 tensors)

dnn/hiddenlayer_1/bias/part_0 f4 [64]
0	0xbc8d1f14	-0.017226733
1	0x39ec3999	0.0004505634
2	0x3d76725c	0.060167655
3	0xbd31c55d	-0.04340111
4	0xbc93bf2f	-0.0180355
5	0x3d019fc6	0.031646512
6	0xbc39880f	-0.011323943
7	0x3d504052	0.05084259
8	0xbdb95153	-0.090487145
9	0x3d8709c2	0.06593658
10	0x3af8d3b4	0.0018983991
11	0x3d2a1851	0.041527096
12	0x3d9054d2	0.07047428
13	0xbd06d39b	-0.032916646
14	0xbbb1a9c4	-0.005421849
15	0xbd655bff	-0.055995937
16	0x3d8dca78	0.069233835
17	0x3d28c37a	0.041202046
18	0xbd29455b	-0.04132591
19	0xbd0a3034	-0.033737376
20	0xbd32263c	-0.043493494
21	0xbd9158d4	-0.07097021
22	0x3da5d800	0.08097839
23	0x3d510db5	0.051038463
24	0x3d41c180	0.047303677
25	0x3dd00e57	0.10158985
26	0xbd615ad5	-0.055018265
27	0x3d2715dd	0.040792335
28	0x3e064815	0.13113435
29	0x3dcb9952	0.09941353
30	0xbd37f11d	-0.044907678
31	0xbd3edeb0	-0.04659909
32	0x3dcbf232	0.099583045
33	0x3d574909	0.052559886
34	0x3c055eb7	0.008140258
35	0xbcd7b50d	-0.026331449
36	0x3df9e1c7	0.12201267
37	0xbd4401a7	-0.04785314
38	0x3d5ae2d1	0.053438965
39	0xbcbae1c8	-0.022812739
40	0x3ccf2bbf	0.025289414
41	0x3dbd2994	0.09236446
42	0x3d5e5a51	0.05428535
43	0xbcf9de5e	-0.03050154
44	0xbd5f2d15	-0.054486353
45	0x3daa7637	0.08323329
46	0xbd8b003a	-0.067871526
47	0x3daa5843	0.08317616
48	0xbcba54d0	-0.02274552
49	0xbce7bc0a	-0.028287906
50	0x3d28147a	0.041035153
51	0x3d6d862a	0.057989277
52	0xbd3a878f	-0.045539435
53	0x3b646eed	0.0034856156
54	0x3c764160	0.015030235
55	0xbc5ebb30	-0.013594434
56	0x3d5597ad	0.052146602
57	0x3d0dea03	0.034647
58	0xbd4c1557	-0.04982504
59	0xbc2b93d6	-0.010472259
60	0x3da61ada	0.0811059
61	0xbb955ff9	-0.00455856
62	0x3ac0c3e9	0.0014706823
63	0x3c1c27ff	0.00953102

dnn/hiddenlayer_0/bias/part_0 f4 [128]
0	0xbda06472	-0.078316584
1	0x3c2cf531	0.010556505
2	0x3d27b058	0.04093966
3	0x3d201b5c	0.039088592
4	0xbd3e402b	-0.046447914
5	0xbcbcf221	-0.023064675
6	0x3cb89fa8	0.022537068
7	0x3c44c4c4	0.012009803
8	0xbde54afe	-0.11195944
9	0x3d2260c5	0.039643068
10	0x3d9cce6c	0.07656559
11	0x3cdac303	0.026704317
12	0x3da3abbc	0.0799174
13	0x3daa6087	0.083191924
14	0x3d896dda	0.06710406
15	0x3bf280e4	0.007400619
16	0x3d525397	0.05134925
17	0xbc98a05c	-0.018631153
18	0xbba71321	-0.005098716
19	0x3cfa7fbb	0.030578485
20	0xbd7ed30c	-0.06221299
21	0x3d2dd316	0.042437635
22	0xbd9305d5	-0.07178847
23	0xbcb55aa5	-0.02213795
24	0xbc9f8c9f	-0.019476233
25	0xbb8e7c60	-0.0043483227
26	0x3d9a6606	0.07538991
27	0x3d63f457	0.055652943
28	0xbc03202b	-0.008003275
29	0x3d9e4ae3	0.07729127
30	0xbcdf1db2	-0.02723584
31	0xbd803d07	-0.0626164
32	0x3d364215	0.044496614
33	0xbcc4e774	-0.024036147
34	0x3df5f900	0.120103836
35	0xbcb9e30e	-0.022691276
36	0x3d0667dd	0.032813895
37	0x3d9e567d	0.0773134
38	0x3d1d8ac1	0.038462404
39	0xbc13c4e1	-0.009019108
40	0x3b3fe8ac	0.002928297
41	0x3d1a4485	0.037663
42	0x3c4bc62a	0.012437383
43	0x3d402804	0.046913162
44	0xbda407ca	-0.08009298
45	0xbe1473b8	-0.14497268
46	0xb9887e60	-0.00026034098
47	0x3bcee5c1	0.00631401
48	0xbd8a82e7	-0.06763249
49	0xbd5e4ade	-0.054270618
50	0x3d1e1939	0.038598273
51	0xbaa8ca7b	-0.0012877727
52	0x3cbc1263	0.022957986
53	0x3c8d4d03	0.017248636
54	0x3bc1b2c8	0.005911205
55	0x3d6ce387	0.057834174
56	0x3c9cd9ab	0.01914676
57	0xbca940cb	-0.020660779
58	0xbd874b44	-0.06606153
59	0x3d9e0fc0	0.07717848
60	0xbd1e61e4	-0.038667575
61	0xbd7f3d1d	-0.06231414
62	0x3ccb3167	0.02480383
63	0xba8b51d3	-0.0010629244
64	0x3ccadc4f	0.024763254
65	0x3c0c71b6	0.008572033
66	0x3c131eed	0.008979541
67	0x3cd75751	0.026286753
68	0x3c33f57b	0.01098382
69	0xbd94f8dc	-0.07274029
70	0x3ca8d48d	0.020609165
71	0xbc9ea0ef	-0.019363848
72	0xbd38d21c	-0.04512225
73	0xbcc07a78	-0.023495898
74	0x3ab760cd	0.0013990641
75	0x3d39b72a	0.045340694
76	0xbcae59c8	-0.021283045
77	0xbd1667f7	-0.036720242
78	0x3d5430de	0.051804416
79	0x3d811dda	0.06304522
80	0xbdc5b221	-0.09653116
81	0x3be26e3a	0.0069101127
82	0xbd84516b	-0.06460842
83	0x3d543ba2	0.051814683
84	0xbd307b5f	-0.043086406
85	0xbc9a60a4	-0.01884491
86	0xbd116e70	-0.035505712
87	0x3c1e1ea7	0.009650863
88	0x3c6baece	0.014384938
89	0xbd731986	-0.059350513
90	0xbd0c482b	-0.034248512
91	0xbc7c369d	-0.01539388
92	0x3d5e4be4	0.054271594
93	0xbd59ed3c	-0.05320476
94	0x3e00cc03	0.12577824
95	0x3da03952	0.07823433
96	0x3da4ce8c	0.08047208
97	0xbd2e29ec	-0.04252045
98	0x3d60ed7b	0.05491398
99	0x3d70246a	0.058628477
100	0x3ca6dc3c	0.020368688
101	0xbd030372	-0.031985708
102	0xbc324598	-0.01088085
103	0xbcd8681c	-0.02641683
104	0x3df2d6c1	0.11857367
105	0x3d0832d5	0.033251602
106	0x3b9de25b	0.0048182434
107	0xbb8d1917	-0.0043059695
108	0x3cdf12fe	0.027230736
109	0xbcd4dc89	-0.025984066
110	0x3acaacd7	0.0015462887
111	0xbd4f1bf5	-0.05056377
112	0xba86d92a	-0.0010288109
113	0x3df19907	0.11796766
114	0x3bc3d45d	0.0059762434
115	0xbd867a14	-0.06566253
116	0x3d1c0714	0.038092688
117	0xbd164128	-0.03668323
118	0x3c3cfe1f	0.011535197
119	0x3cbc2be8	0.022970155
120	0x3db3f270	0.08786476
121	0x3d3aff32	0.04565353
122	0x3d4628b1	0.04837865
123	0x3cdbf834	0.02685175
124	0xbc20f20a	-0.009823332
125	0x3c18669a	0.009301806
126	0xbdb71d3a	-0.089411214
127	0x3c688694	0.014192242

dnn/hiddenlayer_0/MatMul f4 [128, 12]
0	0xbe60ffc3	-0.21972565
1	0x3e158914	0.14603072
2	0x3e7554e6	0.23958167
3	0x3df64355	0.12024561
4	0xbd569fa4	-0.05239834
5	0xbd8c2aab	-0.06844076
6	0xbe180ccf	-0.14848636
7	0x3c814278	0.015778765
8	0xbd11f9c8	-0.0356386
9	0x3ddb8add	0.107198454
10	0xbc553b9a	-0.013014698
11	0x3d9068c4	0.070512325
12	0x3dd570f6	0.10421936
13	0x3d9b9bd6	0.07598083
14	0x3e6b6bcb	0.22990339
15	0xbe265438	-0.16243064
16	0xbc8ca1a4	-0.01716692
17	0xbc25445a	-0.010087097
18	0x3e4739f2	0.19455698
19	0xbe282401	-0.16419984
20	0xbd348b55	-0.04407819
21	0xbe2223f2	-0.15834025
22	0x3db5844b	0.088631235
23	0xbd953e4c	-0.07287273
24	0x3da08617	0.078380756
25	0x3e468e08	0.19390118
26	0x3d9ad8c9	0.0756088
27	0xbcd46e76	-0.025931578
28	0xbcdb2fb8	-0.026756153
29	0x3e4c6881	0.1996174
30	0xbc9516e1	-0.018199386
31	0x3cee801c	0.029113822
32	0x3d4fbcf5	0.050717313
33	0x3e24a265	0.16077574
34	0xbcadcdd4	-0.02121631
35	0xbdaaaea5	-0.08334092
36	0x3da91ad2	0.08257069
37	0xbd6a8ace	-0.05726128
38	0xbe4a4a7a	-0.19754973
39	0x3d2a06da	0.04151044
40	0xbdf7d51c	-0.12101194
41	0xbe497877	-0.1967486
42	0xbe2f9ad2	-0.17148903
43	0x3e233fac	0.15942258
44	0xbd19099a	-0.037362672
45	0xbac3112a	-0.0014882435
46	0xbd19e86d	-0.037575174
47	0x3ba3dff3	0.005001062
48	0xbdc0527e	-0.09390734
49	0x3e1bd736	0.15218815
50	0xbe7df59b	-0.24800722
51	0xbe0a584b	-0.13510244
52	0x3e093bc6	0.13401708
53	0xbdfaffe1	-0.12255836
54	0xbc321cdd	-0.010871139
55	0xbcf6c2f3	-0.030122256
56	0x3e242857	0.16031013
57	0x3dcf49ce	0.10121499
58	0xbc13f924	-0.009031568
59	0x3e2ae69c	0.16689533
60	0xbd945cd7	-0.0724427
61	0x3d1d3e09	0.03838924
62	0x3e2de137	0.16980444
63	0xbd694909	-0.056954417
64	0x3e1f8c54	0.15580875
65	0x3c6aeeef	0.014339193
66	0xbe939898	-0.28827357
67	0xbc8d9156	-0.017281216
68	0x3e10bea9	0.14135231
69	0xbd27b8ce	-0.040947728
70	0xbda6d635	-0.081463255
71	0xbcdc65c2	-0.02690399
72	0xbd5057eb	-0.050865095
73	0x3db3e610	0.08784115
74	0x3d7e50b7	0.062088694
75	0xbe35b1b3	-0.17743568
76	0x3e15f8a6	0.14645633
77	0xbcb3f70f	-0.021968393
78	0xbe0e590e	-0.13901159
79	0x3be183ff	0.0068821902
80	0xbe440e1d	-0.19146009
81	0x3d9af575	0.075663485
82	0xbdec8082	-0.115479484
83	0x3d689a2b	0.05678765
84	0xbe479e60	-0.19494009
85	0x3ddaed00	0.106897354
86	0xbe08b5fa	-0.13350669
87	0x3ddb64d1	0.107125886
88	0xbe1ce938	-0.15323341
89	0x3b9b7c3c	0.0047450345
90	0xbce11e33	-0.02748022
91	0xbe42e4d9	-0.19032611
92	0x3e197eef	0.14989828
93	0xbdcacf3f	-0.0990281
94	0x3d8cca71	0.0687455
95	0xbe244962	-0.16043618
96	0xbde1348c	-0.10996351
97	0x3e4ad409	0.19807447
98	0xbd599905	-0.053124446
99	0x3e4b729e	0.19867942
100	0x3e3540c6	0.1770049
101	0xbcae9020	-0.021308959
102	0xbe3ed7e0	-0.18637037
103	0xbb548954	-0.0032430487
104	0x3db8ec04	0.090293914
105	0xbba5b37d	-0.005056797
106	0xbe0a5dcd	-0.13512345
107	0x3e3fac8a	0.18718162
108	0x3d8e68d4	0.06953588
109	0xbe345e21	-0.17614032
110	0x3d6ab8ab	0.05730502
111	0x3de70af6	0.112813875
112	0x3d8bede5	0.06832484
113	0x3db9d1ca	0.09073217
114	0xbe7222b7	-0.23646055
115	0x3c9e6cd5	0.019339005
116	0x3e70215a	0.23450223
117	0x3d3c89bf	0.046029802
118	0x3e021c3a	0.1270608
119	0x3e3dcbe7	0.18534814
120	0xbe05c158	-0.13062036
121	0xbca50b77	-0.020147068
122	0x3e7d4b56	0.2473577
123	0x3df17fe5	0.11791972
124	0x3d4b1186	0.04957726
125	0x3dd45a54	0.10368791
126	0x3ce7fd4e	0.028319027
127	0xbd6cc126	-0.05780139
128	0x3e3e8d86	0.18608674
129	0xbe2468e6	-0.1605564
130	0xbe4e7eda	-0.20165578
131	0x3dc5f0e9	0.096650906
132	0x3da08619	0.07838077
133	0x3de8d914	0.11369529
134	0x3b719907	0.0036864893
135	0x3d885e8e	0.0665866
136	0xbd30fe51	-0.043211285
137	0x3c555b24	0.013022218
138	0xbd1acbe3	-0.037792098
139	0x3d1b4c96	0.037914835
140	0xbde66708	-0.112501204
141	0x3dab60ca	0.083680704
142	0x3e8436e9	0.25823143
143	0xbd9169be	-0.07100247
144	0xbe00c91d	-0.12576719
145	0xbdce8da4	-0.100856096
146	0x3c23d6f2	0.009999977
147	0xbda15c57	-0.078789406
148	0x3e3e862c	0.1860587
149	0xbe1eea51	-0.15519072
150	0x3e35a159	0.1773733
151	0x3dd6cc11	0.10488141
152	0xbe1cbed1	-0.15307166
153	0xbe6481b8	-0.22315109
154	0x3e71c502	0.23610309
155	0xbca8643c	-0.020555608
156	0x3e0cd8a4	0.13754517
157	0x3e1ab4ea	0.15108076
158	0xbc4e3483	-0.012585762
159	0x3e4893a7	0.19587575
160	0x3e3f1599	0.18660583
161	0x3e4992d6	0.1968492
162	0xbe5d5fab	-0.21618526
163	0xbcf6bdca	-0.030119795
164	0xbbb2b6f5	-0.005453939
165	0xbd8e95d7	-0.069621734
166	0xbe0ea092	-0.1392844
167	0xbe62cf15	-0.22149308
168	0x3de6d6a4	0.11271408
169	0x3ccd234e	0.025041249
170	0x3d955d93	0.072932385
171	0xbc7c695e	-0.015405981
172	0xbdc9d2fc	-0.09854695
173	0x3e57f020	0.21087694
174	0xbdc7c284	-0.09753898
175	0x3e2079f1	0.15671517
176	0xbe14c927	-0.14529859
177	0xbdf27c6c	-0.11840138
178	0xbe22c321	-0.15894748
179	0x3d23f1d9	0.040025566
180	0x3e33470d	0.17507572
181	0xbe3a0bb7	-0.18168531
182	0x3d10dc47	0.035366323
183	0xbdf944d5	-0.12171332
184	0x3e012c19	0.12614478
185	0x3de30f6d	0.110869266
186	0x3e036d4b	0.1283466
187	0x3e2e0584	0.16994292
188	0x3cb36bb5	0.021901945
189	0x3dc725a2	0.09723975
190	0xbcad5c52	-0.021162186
191	0x3e380741	0.17971517
192	0x3e0d1f1b	0.13781397
193	0x3e3fca32	0.18729475
194	0xbdde35fb	-0.1085014
195	0xbe1cda31	-0.15317608
196	0xbe0ee4a0	-0.13954401
197	0x3ddb7b07	0.10716825
198	0xbe46bfb5	-0.19409068
199	0x3e221037	0.15826498
200	0x3ce8ed7a	0.02843355
201	0x3cf62c01	0.03005028
202	0xbe140c0f	-0.14457725
203	0xbe3bc2c6	-0.18336019
204	0xbe134839	-0.1438302
205	0xbe4509a3	-0.19241957
206	0xbce66a6b	-0.028126916
207	0xbe2fa96f	-0.17154478
208	0x3e40b564	0.18819195
209	0xbdbd5a8b	-0.09245785
210	0x3e69277b	0.22768967
211	0xbdf6359f	-0.12021946
212	0x3df1c5e3	0.11805322
213	0x3e10a4eb	0.14125411
214	0xbc91fa94	-0.01781968
215	0x3e4ad725	0.19808634
216	0x3da7b407	0.08188634
217	0xbdcf737d	-0.101294495
218	0x3dda0046	0.106445834
219	0x3d7a0d29	0.061047707
220	0x3d60b2c5	0.054857988
221	0xbdeff064	-0.11715773
222	0xbd11347c	-0.035450444
223	0xbe6206fa	-0.22072974
224	0xbe404884	-0.18777663
225	0xbd1dce5c	-0.038526878
226	0xbe5ffa80	-0.21872902
227	0xbd8499d8	-0.06474656
228	0xbd949cf7	-0.07256501
229	0x3d15eb98	0.036601633
230	0xbc77f155	-0.015133222
231	0xbe332d4c	-0.17497748
232	0xbcd03ed5	-0.025420586
233	0x3c6ebd18	0.014571451
234	0x3df7ad3b	0.12093588
235	0x3dee2127	0.11627417
236	0xbe60cd12	-0.21953228
237	0x3e72fbb0	0.23728824
238	0x3d53a64e	0.051672272
239	0x3d7dbd37	0.061948027
240	0x3dae208b	0.08502301
241	0x3e27c1a2	0.16382459
242	0x3de5c864	0.11219862
243	0xbd00a18e	-0.03140407
244	0x3e161911	0.14658
245	0xbe324309	-0.17408384
246	0xbe1f4ea9	-0.1555735
247	0x3ccfc439	0.025362121
248	0x3dfe65d8	0.12421769
249	0x3d9c64a4	0.07636383
250	0xbe2a1341	-0.16608907
251	0x3d453eec	0.04815571
252	0xbdffa139	-0.12481923
253	0x3e4719b4	0.19443399
254	0x3d8f8fae	0.070098266
255	0xbab1f5e6	-0.0013577312

dnn/hiddenlayer_1/MatMul f4 [64, 128]
0	0x3d34040d	0.043949176
1	0xbce7ac98	-0.028280541
2	0x3e0900ef	0.13379262
3	0xbdb3889a	-0.08766289
4	0x3c9a0c42	0.018804673
5	0x3df0c16d	0.11755643
6	0xbc408e71	-0.011752711
7	0xbd7a957f	-0.061177727
8	0x3e02ccf6	0.12773499
9	0xbbbfe8b7	-0.005856599
10	0xbe3a51ad	-0.1819522
11	0xbe0821df	-0.13294171
12	0x3cf5bcc6	0.02999724
13	0xbde37273	-0.11105814
14	0xbda31190	-0.07962334
15	0xbe1be515	-0.15224107
16	0x3ba55dbc	0.0050465744
17	0xbdb9288b	-0.09040936
18	0x3dbca426	0.09210996
19	0xbdcc78fa	-0.09984012
20	0xbdd66040	-0.10467577
21	0x3d1ab7ac	0.03777282
22	0x3e04ee24	0.12981468
23	0x3d1c3e6d	0.03814547
24	0xbd75f42b	-0.06004731
25	0xbd80e0e2	-0.06292893
26	0xbd9a4303	-0.07532313
27	0x3dff7431	0.124733336
28	0x3db9fdef	0.09081637
29	0xbd1f8211	-0.0389424
30	0x3d8784fa	0.0661716
31	0xbda3708b	-0.0798045
32	0x3b20c6f0	0.0024532638
33	0xbd246f9f	-0.040145513
34	0x3dbf4c39	0.0934071
35	0xbe2c9912	-0.16855267
36	0x3db3515e	0.08755754
37	0x3db843cc	0.08997306
38	0xbd9302ae	-0.071782455
39	0xbe20d625	-0.1570669
40	0xbdec955f	-0.11551928
41	0xbe298ce3	-0.1655765
42	0x3df64811	0.12025464
43	0x3e3047cf	0.17214893
44	0xbda5fb46	-0.08104567
45	0xbdcdead0	-0.100545526
46	0xbd3d7196	-0.046250902
47	0xbddfff42	-0.109373584
48	0x3c9cbded	0.019133532
49	0xbe25ec48	-0.16203415
50	0xbc0be877	-0.008539311
51	0x3d9f416d	0.07776151
52	0x3e30b1a9	0.17255272
53	0xbe2c4c04	-0.16825873
54	0x3bd1d2b4	0.0064032916
55	0x3da533c9	0.08066518
56	0xbd27f64b	-0.041006368
57	0xbe1a3a77	-0.15061365
58	0xbd243145	-0.04008605
59	0x3cdd16c0	0.026988387
60	0x3d8a4103	0.06750681
61	0x3e074c33	0.13212661
62	0x3da9faee	0.08299814
63	0xbcf14ac4	-0.029454596
64	0x3da248ff	0.07924079
65	0xbdbfcb0f	-0.09364902
66	0x3d621db6	0.055204116
67	0x3d9ad167	0.075594716
68	0xbd2c3251	-0.042040173
69	0xbd510dec	-0.051038668
70	0x3d44c575	0.048039872
71	0xbe045a8a	-0.12925163
72	0x3d75d87c	0.06002091
73	0xbdd63135	-0.10458604
74	0x3cdbd621	0.026835503
75	0xbd9ef4af	-0.077615134
76	0xbd21b698	-0.039480776
77	0xbdc8ed0b	-0.09810837
78	0xbdca6bd2	-0.09883846
79	0xbe318bea	-0.17338529
80	0x3e024a23	0.12723593
81	0x3ca1f4fe	0.019770142
82	0x3cf4b803	0.0298729
83	0xbe412925	-0.18863352
84	0xba581f0e	-0.00082443736
85	0x3df5e642	0.12006809
86	0x3c382512	0.011239307
87	0x3d767556	0.060170494
88	0xbd2026f7	-0.03909966
89	0x3d89a578	0.06721014
90	0x3d545998	0.051843256
91	0x3d0beb53	0.03415997
92	0x3d22fa52	0.039789505
93	0xbdf9bc65	-0.121941365
94	0xbde5b945	-0.11216978
95	0xbc9e2647	-0.019305361
96	0xbe1beae2	-0.1522632
97	0x3d46b433	0.048511695
98	0x3c91923c	0.017769925
99	0xbe1c2a4e	-0.15250513
100	0x3cfd4a3c	0.030919187
101	0xbd146956	-0.03623327
102	0xbde0c49d	-0.10975001
103	0x3e06360e	0.13106558
104	0xbd295493	-0.041340422
105	0x3d7ade89	0.061247382
106	0xbd0d8553	-0.034550976
107	0x3da4a32a	0.080389336
108	0x3dcc5537	0.09977191
109	0x3d8f0181	0.06982709
110	0xbdb99829	-0.09062225
111	0xbe01673c	-0.12637037
112	0xbc61fa15	-0.013792534
113	0x3e296d2e	0.16545555
114	0xbe1bbbb2	-0.15208319
115	0x3df8f576	0.12156193
116	0xbc44a3c5	-0.012001936
117	0xbe08f1ae	-0.13373443
118	0x3da5e7cf	0.081008546
119	0xbe01779a	-0.1264328
120	0xbe2d6bc5	-0.16935642
121	0xbe147739	-0.14498605
122	0xbd6bfd16	-0.05761441
123	0xbd16348e	-0.036671214
124	0x3cb90abf	0.022588132
125	0x3d6e9616	0.0582486
126	0xbe3b18e4	-0.18271214
127	0x3e07c83f	0.13259982
128	0x3e1d76a5	0.1537729
129	0x3dff29a1	0.12459112
130	0x3de15a67	0.11003571
131	0xbdeaa5a3	-0.11457374
132	0xbe2ae67b	-0.16689484
133	0x3d87db6f	0.066336505
134	0xbd18f358	-0.037341446
135	0xbe2b7a09	-0.16745771
136	0xbe1f90e9	-0.15582623
137	0xbbf9a383	-0.007618369
138	0x3e13b368	0.14423907
139	0xbe12aa0c	-0.1432268
140	0x3d69446f	0.05695003
141	0x3e2e2fce	0.17010424
142	0x3e065319	0.13117637
143	0xbc1177ce	-0.008878661
144	0xbc18e2f4	-0.009331454
145	0xbe124a03	-0.14286046
146	0xbd4bcc9d	-0.04975568
147	0xbb002ec8	-0.0019559134
148	0xbcb15b88	-0.02165009
149	0xbdbd0359	-0.09229154
150	0xbe1254e8	-0.14290202
151	0xbd982114	-0.07428184
152	0x3c4b2f8e	0.012401475
153	0x3c9adb37	0.018903358
154	0x3c6705d4	0.014100511
155	0x3b8d1789	0.004305784
156	0x3d17b258	0.037035316
157	0xbe2758ab	-0.16342418
158	0xbe202057	-0.15637337
159	0x3d67c013	0.05657966
160	0x3d9675c5	0.073466815
161	0xbd4069b3	-0.046975803
162	0xbd70382d	-0.058647323
163	0xbd81fc73	-0.06346979
164	0x3e086c00	0.13322449
165	0xbdb15dfa	-0.08660503
166	0xbda89ff7	-0.08233636
167	0x3e167296	0.14692149
168	0x3e0777e9	0.13229336
169	0xbd0b2b2d	-0.033976723
170	0x3e2f748d	0.17134304
171	0xbd16b571	-0.03679413
172	0x3d210233	0.039308738
173	0x3c8f33d4	0.017480768
174	0x3bb5b1a2	0.005544857
175	0xbcd3b25e	-0.025841888
176	0x3da3776c	0.07981762
177	0xbe2d9098	-0.1694969
178	0x3e15a295	0.14612801
179	0x3dd77ed9	0.10522241
180	0x3e290f01	0.1650963
181	0xbd46e44f	-0.048557576
182	0x3e16eeaa	0.1473948
183	0xbdbba72f	-0.09162747
184	0xbd7090ec	-0.05873196
185	0xbdeb2ef9	-0.11483569
186	0xbdb3418c	-0.087527364
187	0x3cad99e9	0.021191554
188	0xbd547022	-0.05186475
189	0xbdc5a86e	-0.09651266
190	0x3e1daa06	0.1539689
191	0x3d2afa49	0.041742597
192	0xbded5c3b	-0.11589857
193	0x3e181c7c	0.14854616
194	0xbe0fbd9a	-0.14037171
195	0xbd9ad98b	-0.07561024
196	0x3dbf62c5	0.09345011
197	0x3e00561e	0.12532851
198	0xbcf9c2a1	-0.030488314
199	0x3d130827	0.035896447
200	0xbe17f367	-0.14838944
201	0x3ca05837	0.019573314
202	0x3e155428	0.14582884
203	0x3d47f4a1	0.04881728
204	0x3c824bfd	0.015905375
205	0xbe005ccd	-0.125354
206	0x3d896d4e	0.06710301
207	0xbe165897	-0.14682232
208	0x3dce52bf	0.10074376
209	0x3d746c07	0.059673335
210	0x3e1c3009	0.15252699
211	0x3dfeeeb0	0.1244787
212	0xbdd31295	-0.103062786
213	0xbad861f7	-0.0016508688
214	0xbdea22d8	-0.11432427
215	0x3dc25402	0.094886795
216	0xbe03ba98	-0.12864149
217	0xbdf8c385	-0.121466674
218	0xbe036cc8	-0.12834466
219	0xbd831cc6	-0.064019725
220	0x3c3edebc	0.011649784
221	0x3d1092e2	0.03529633
222	0x3c39715d	0.011318532
223	0xbde09182	-0.109652534
224	0xbd79d3e2	-0.060993083
225	0x3e0c2161	0.13684608
226	0x3cb50076	0.022094946
227	0xbded9aae	-0.116017684
228	0x3e15c707	0.14626704
229	0xbe356307	-0.17713557
230	0xbce94b3b	-0.028478255
231	0xbde3aa09	-0.11116416
232	0xbbe8f95c	-0.007109804
233	0x3e24064f	0.16018032
234	0x3d519a78	0.051172704
235	0x3e11226f	0.14173292
236	0xbe0d9bb4	-0.13828927
237	0xbe0096f6	-0.12557587
238	0xbd3289cc	-0.043588445
239	0x3e2959cc	0.16538161
240	0xbdce130a	-0.10062225
241	0xbda275c4	-0.07932618
242	0xbc956efc	-0.018241398
243	0xbcd1c26d	-0.025605405
244	0xbd2d3393	-0.042285513
245	0x3bde0e91	0.006776639
246	0xbe13bf74	-0.14428502
247	0x3e04ddcc	0.12975234
248	0x3d0da6a8	0.034582764
249	0x3e125d14	0.14293319
250	0xbe0fef75	-0.1405619
251	0x3e01569f	0.126307
252	0x3e2ea9de	0.17056987
253	0x3da12a97	0.078694515
254	0xbc029a17	-0.007971308
255	0x3d813220	0.06308389

dnn/logits/MatMul f4 [1, 64]
0	0xbe9b4cc2	-0.30332
1	0xbb7a0863	-0.0038151972
2	0x3eaded40	0.3397007
3	0xbe304c30	-0.17216563
4	0xbe0dcaa5	-0.13846834
5	0x3e05dd05	0.13072594
6	0xbe6d9d55	-0.23204549
7	0x3dddde0f	0.1083337
8	0xbe52d8cb	-0.20590512
9	0x3e97e9dc	0.29670608
10	0xbe1b0436	-0.15138325
11	0x3e2b0387	0.16700564
12	0x3e819420	0.25308323
13	0xbe138ed1	-0.14409949
14	0xbe86882f	-0.26275775
15	0xbe9293d8	-0.2862842
16	0x3e0b1eb0	0.13585925
17	0x3e3010f6	0.1719397
18	0xbeb08c7e	-0.34482187
19	0x3ed113bd	0.40835372
20	0xbcb71f30	-0.022353739
21	0xbea01644	-0.31266987
22	0x3e17b1e8	0.1481396
23	0x3e9b52f3	0.30336723
24	0x3db5f3f9	0.08884425
25	0x3e83d613	0.25749263
26	0xbde7e1ca	-0.11322363
27	0x3e18e7e9	0.14932217
28	0x3eaf9baa	0.3429845
29	0x3e696664	0.22792965
30	0xbe24a717	-0.16079365
31	0xbe16e0ab	-0.14734142
32	0x3e8400e6	0.25781935
33	0x3e7a888f	0.24466155
34	0xbcfa8240	-0.030579686
35	0x3dc1d93c	0.09465262
36	0x3eadc4ae	0.33939117
37	0xbe7b7217	-0.2455524
38	0x3e48c915	0.19607957
39	0xbe0eeb61	-0.13956977
40	0x3e0c692c	0.13711995
41	0x3e7b03b1	0.24513127
42	0x3e695a20	0.22788286
43	0xbe264850	-0.16238523
44	0xbea7a1ff	-0.3274078
45	0x3e92e548	0.28690553
46	0xbe7d0c45	-0.24711712
47	0x3ed61373	0.41811714
48	0xbe2f8774	-0.17141515
49	0x3e2758ad	0.16342421
50	0x3e24c2ef	0.16089986
51	0x3edf103a	0.43567067
52	0xbe9434c5	-0.2894651
53	0xbddf1cca	-0.10894163
54	0x3db9d402	0.090736404
55	0xbda9a6e3	-0.08283784
56	0x3e0ccafd	0.13749309
57	0x3dd9ea84	0.106404334
58	0xbe180315	-0.14844926
59	0xbeb332f0	-0.349998
60	0x3e855b15	0.26046053
61	0xbd433e45	-0.047666807
62	0x3da0570a	0.078291014
63	0xbdf12312	-0.11774267
